models/test_model.pt (torch, 7319 bytes, 6 tensors)

input_layer.weight f4 [32, 5]
00000000: 34bf 2e3f 534c 8d3f 22e4 c5be bf4f 78be
00000010: ebe4 18be 04aa 403f a855 7ebe 9c8a 38bf
00000020: 2368 a63e 9a61 06bf eb2f d5be 8f9e cc3e
00000030: 7e34 8c3f 9fa5 d2bd e04e e23e 0ed9 b4bf
00000040: a88d 443c f9be e0bf 6b22 fcbe 84db adbd
00000050: 430f 31bf 5127 533e 7427 293f 4901 92bd
00000060: a642 45be cbeb 063f 83ab abbf d3a5 89bf
00000070: 8690 41be 01af debe 8ecc 27be 6c61 cf3e
00000080: 375d bb3f d0a9 a0be 7564 96be 9262 0cc0
00000090: b1e4 e83e 033c 42be b352 a93e 0000 c9bd
000000a0: 3bc8 0dbf a25e c7bf 01b8 cd3f edb8 f13d
000000b0: 75b8 f3be 3eb6 d0be 829a 86bf 235f 883f
000000c0: 3c1c 063b 1453 603b d908 afbd a95b 9f3e
000000d0: 2567 01c0 4c67 0cbd 41fc 02bf 320b f83e
000000e0: 7f91 2f3f a118 f23e 9bca ca3e 3e8d 42be
000000f0: ccd0 8bbf 8fda 003f 3cd0 dc3f d718 e53d
00000100: d00a c53e 2fa9 87bf a3b0 e5bd 9125 c23e
00000110: dd77 aa3d 41cb c03e 484c 03be 4be0 0240
00000120: 105b 88bf d8dc 843e 2497 113f 6dc5 803d
00000130: 1ac1 53be fd46 19bf 5090 853e f8ca a33e
00000140: 463d ec3f 9291 c53e 74cb ce3f 0658 673e
00000150: 7e11 e53e c6fd 6b3f 4e7a 1f3f 7f15 6f3f
00000160: 5508 f33e 104b 29be 01fd 93be 8c93 8cbe
00000170: 46bc f73e a9e3 4a3e 2efb 053f 7257 a73e
00000180: 661d 413f 8b65 a0bf 6d89 73be 199c 06bf
00000190: 476b 4d3e 4cee 803d 3532 7d3f 6311 c03e
000001a0: a050 a8be b133 1dc0 fdb0 9f3f 2500 b740
000001b0: f7b5 753d 6c6d a3bd ad2d 233d 47e3 163f
000001c0: e259 ef3f 8d5f bf3e 9597 bcbd d379 15bf
000001d0: 8350 803e 771e dd3e b365 05bf 2747 f0be
000001e0: 55b8 02bf c8af 30bf 87f8 aa3f 2d9f 49be
000001f0: 45c8 58be ba0b 963f cf09 823e feae e43f
00000200: 1de9 ec3e 042f 843f 6e9e 27bd 5420 313f
00000210: b6f3 ab3f 5238 373e 726e 69be 5a15 18bf
00000220: c289 eabf eb26 b63f 2a2b b33e 2364 5d3e
00000230: 9803 123f 709c 0dbf 9e48 07c0 e850 31be
00000240: 0b0e 79bd ea44 07bf 6db8 8c3e 2bfd b13f
00000250: 2825 adbd d2c9 c53e e477 783f 86cf afbe
00000260: ced8 69be 7a59 14be e154 cebe c2a3 28bf
00000270: 3915 733d aca5 5e3b 395c d33d 987e a53e
0.682605 1.1038917 -0.38650614 -0.2424917 -0.14931075 0.75259423 -0.24837363 -0.720865
0.32501325 -0.5249268 -0.4163812 0.3996472 1.0953519 -0.10285496 0.44200802 -1.412874
0.011996664 -1.755828 -0.4924501 -0.08489135 -0.6916391 0.20620467 0.66075826 -0.071291514
-0.19263706 0.5270354 -1.3411716 -1.075373 -0.18902788 -0.43492892 -0.16386625 0.40504014
1.4637822 -0.31379557 -0.29373518 -2.1935163 0.45486978 -0.18968205 0.33070907 -0.09814453
-0.5538365 -1.5575755 1.6071779 0.1180285 -0.47601667 -0.4076404 -1.0515902 1.0654033
0.0020463606 0.0034229206 -0.085466094 0.3112462 -2.0219204 -0.0342782 -0.5116616 0.4844604
0.68581384 0.47284415 0.396077 -0.18999192 -1.0923095 0.50333494 1.7251048 0.111863784
0.38484812 -1.0598506 -0.112153314 0.37919286 0.08323643 0.3765507 -0.12822068 2.0449398
-1.065279 0.2594974 0.5687125 0.06287656 -0.20679131 -0.59873945 0.26086664 0.3199079
1.8456199 0.38587624 1.6155839 0.22592172 0.44739908 0.921841 0.62296 0.93392175
0.47467294 -0.1653254 -0.28903964 -0.2745632 0.4838583 0.19813408 0.52336395 0.32683903
0.75435483 -1.2530988 -0.23782893 -0.52581936 0.20060454 0.062954515 0.98904735 0.37513265
-0.32874012 -2.45628 1.2475888 5.7187676 0.05998799 -0.07979855 0.03983848 0.5894055
1.8699305 0.37377587 -0.092085995 -0.58389014 0.25061426 0.43187305 -0.52108306 -0.46929285
-0.5106252 -0.6901822 1.3357095 -0.19689627 -0.21170147 1.1722329 0.25398108 1.7865903
0.462716 1.0326848 -0.040922575 0.69189954 1.343375 0.17892578 -0.22796038 -0.5940758
-1.832329 1.4230627 0.3499387 0.2162023 0.57036734 -0.5531683 -2.1138072 -0.1731602
-0.060804408 -0.5283953 0.27484456 1.3905386 -0.084543526 0.3863054 0.9705794 -0.34338015
-0.2283661 -0.14487258 -0.40299132 -0.65874875 0.05934641 0.003397326 0.103203245 0.32323146

input_layer.bias f4 [32]
00000000: 34c3 a63e b716 c83e e174 673e e3d8 833e
00000010: c7af 33bc 508c 673f 5b65 7c3e 7c9b 013f
00000020: ec4b 1abd ce91 b5be ae18 093f dec7 ccbd
00000030: b105 67bd 8730 1e3e 054d 92be db26 753e
00000040: 70f9 91be 4e43 80be be46 cbbe 3c97 123f
00000050: 5989 7e3e 1e36 a63a 2aa9 d5bc e484 d3bd
00000060: fb19 a23e 5b48 7ebe 9826 f9bd 8b23 9e3d
00000070: 4803 1d3e bb2c df3d 5064 3bbd bc57 3d3e
0.32570803 0.3907983 0.2260318 0.2575141 -0.010967202 0.90448475 0.24648039 0.50627875
-0.03767006 -0.35462803 0.53553283 -0.09999059 -0.056401912 0.15448199 -0.28574386 0.23940603
-0.28510618 -0.2505135 -0.3970241 0.57262015 0.24857081 0.0012680923 -0.02608164 -0.10328081
0.31660447 -0.24832289 -0.12165564 0.07721623 0.15333283 0.108972035 -0.045749962 0.184905

layer.weight f4 [32, 32]
00000000: c173 55be f293 673f 7a4e a13e 10c8 a7be
00000010: 2b96 3e3d 5f21 1dbf 3e6d 33bf 79ff 6b3c
00000020: 8f53 e9be 9128 e03e 947b 79bf 38c5 aa3f
00000030: 3db4 6b3e 61ec 9dbf 9120 d93e d583 48bf
00000040: 6165 003f 67f1 143f 4e34 183b 1972 41bf
00000050: 2142 05be 86aa ab3e 22d1 9f3f 1d74 f0be
00000060: 175a 823e 6cdd 613f 77de 113e 1a44 1b3e
00000070: 4e8f 01bf 3585 2e3e 0941 c03e 4546 babe
00000080: cb17 5e3f b5fc 12bf a1b2 c73d 668a 78be
00000090: 63e7 43bf ac1b b2bf ae81 6bbe f112 3dbe
000000a0: 5849 d23f d461 c8bf 378b ed3e 2b2e bdbd
000000b0: a382 0d3e 93e9 c93e c3de 813f ca1d 84be
000000c0: cfbd 5cbd 227e 2bbf 50f6 a23d 6a62 c63e
000000d0: 9da7 6abf c40b 213f 40a6 ff3d 7e0a f4bf
000000e0: 431d 9cbf ebec 7dbf a74f cb3e 33ce 27bf
000000f0: b9f7 e7bd 89e2 913f 6ec4 b9be 2499 ef3e
00000100: d2d3 3dbf 8bf5 65be 41c6 0cbe a52d 073f
00000110: 39af 0b3f f801 103e 2513 21bf cf4f 8dbb
00000120: b4a1 143f edcf 3c3f ce35 0f3f 18ff eb3e
00000130: fe50 64bc fb1f e6bd 6c19 5b3f 3f90 cd3e
00000140: 8bbb 98bf b30e 9abd 0414 ad3d f12e adbb
00000150: 2388 75bf a495 aabd f182 ea3e 5064 493f
00000160: 78d2 a83e 88bf 87be 6253 25bf 5fa1 f33d
00000170: d081 903e 4596 763e 0653 4fbf 7aec 8f3e
00000180: 4742 b5be 68b1 aebe b96c 3bbf 644d cd3e
00000190: fe22 0c3e 5e15 1cbc 223b 6d3f d153 fabc
000001a0: d3a4 fcbe 559f 8dbe 8695 a73e 5703 6d3e
000001b0: 0bb9 ca3e 58dd 263f ae06 603e 51a0 69bf
000001c0: 9125 8fbd 9d8e d23e e5ed 54be 345f 4ebe
000001d0: aa17 d43e 1799 483d c2b6 943e 42c9 7f3f
000001e0: eec7 26be 219b 653e 11b4 033e f591 dbbd
000001f0: c33f 6bbd 9462 dc3e bdff 283e 03f3 403e
00000200: 86f5 033f 376c 03be d3a2 253f 0eba 473f
00000210: fcdc 7bbd c275 88be 2b4b f83d 7884 40c0
00000220: f251 5cbd 6d5d f2be bad6 b13e 67c6 9b3e
00000230: 4e06 f83d 50a3 d83e 9f07 413f cf8b ecbd
00000240: dd71 c33e 764d 183f aa58 82bf 3d13 28be
00000250: 17d9 f3bf 7a14 80bf 6abc 813f 1764 1a3e
00000260: 9146 b3be 83e9 cdbd b824 663e f4f8 98be
00000270: 6827 2abf b0ff 333f 74b8 2b3f e809 cabe
00000280: 41b7 7cbe d6f8 edbe 369d 0a3f dec1 3bbf
00000290: 73c9 1c40 df1e 07be 3648 4c3f ac03 963f
000002a0: 5431 853e 3bab ff3d b5d0 b9be e078 c1be
000002b0: cc51 c33e fe87 e23e 06c7 443d f2b4 98bf
000002c0: 8316 463f 36a4 6fbd dadf 1a3f ea37 00bf
000002d0: 6c5a 22be c974 093e c8ad 7fbd 7173 4bbf
000002e0: fab8 2d3e 6dd7 71be dd68 c4bd 9df7 4b3f
000002f0: fe12 d1be 4516 f73e a6da 013f 6fb2 7abf
00000300: 4217 a8bf 815b e9be d926 8ebe f351 403e
00000310: 9e7c 823f 2fc9 5ebf e897 073f 15ae 39bf
00000320: 37d3 f0be 023c 29be c467 f23e 6a5c d93e
00000330: aaa9 363e 25c4 ac3e 8ccf acbe 797b 0abf
00000340: 2db0 293f 7100 543f 1949 dcbc 2329 a5bd
00000350: faff 9cbf 1643 4cc0 7049 90bd 4ac2 2bbe
00000360: 8271 40be cc66 a13d f1c9 b6bd 4288 9ebd
00000370: cf05 723f 6560 a6bd 936c a13e a5f8 aa3d
00000380: f1cc febe ba96 3fbf 20db 9dbe dd22 cebe
00000390: 74d8 2b3e f49d adbe 357b 4f3f efe5 5e3c
000003a0: ab35 8c3e e5f4 d3bd dc08 7abf d2aa 44bc
000003b0: 4185 94be 6d80 c7bd 0b41 4bbd b227 073f
000003c0: 9f83 8c3e 5d08 48bf 8e52 903f 4742 f53e
000003d0: 6b6a b7be 0204 b23e 1b8e 6abe 3751 b5bf
000003e0: 04ef 063c 5f8b bc3d 3856 b4bf 67e6 2d3e
000003f0: 534f 6b3f 2eeb 90be 539e c43e 06a5 51bd
-0.20844938 0.9046012 0.31505185 -0.32769823 0.04652993 -0.61379045 -0.70088565 0.014404171
-0.45571563 0.4378095 -0.9745419 1.3341436 0.23017974 -1.2337762 0.4240766 -0.7832616
0.5015469 0.5818085 0.0023224535 -0.75564724 -0.13013507 0.33528537 1.2485697 -0.46963587
0.25459358 0.8822849 0.1424502 0.15162697 -0.5060929 0.17043002 0.37549618 -0.36381736
0.86755055 -0.5741685 0.09750868 -0.24271545 -0.76524943 -1.3914695 -0.22998688 -0.18464257
1.6428633 -1.5654855 0.46395275 -0.092373215 0.13819365 0.39436015 1.0146106 -0.25803977
-0.053891953 -0.6698934 0.07957137 0.3874696 -0.9166201 0.6290858 0.124828815 -1.9065702
-1.219643 -0.99189633 0.39709207 -0.6554901 -0.11326546 1.1397258 -0.36282676 0.46796525
-0.7415134 -0.22456948 -0.13747503 0.52804023 0.54564244 0.14063251 -0.6291984 -0.0043124924
0.5805924 0.7375477 0.55941474 0.4609306 -0.013935326 -0.112365685 0.85585666 0.40149114
-1.1932234 -0.07522335 0.08451083 -0.005285137 -0.95910853 -0.08329323 0.45803025 0.7866869
0.32973075 -0.26513314 -0.6458036 0.118960135 0.2822404 0.24080761 -0.8098606 0.28110105
-0.35402128 -0.34119725 -0.7321277 0.40098107 0.13685223 -0.009526579 0.92668355 -0.030557545
-0.493445 -0.27660623 0.32731265 0.23145805 0.39594302 0.65181494 0.21877548 -0.9126025
-0.06989587 0.4112443 -0.20793875 -0.20153505 0.41424304 0.048974123 0.29045683 0.9991647
-0.16287205 0.22422458 0.12861659 -0.107211985 -0.057433855 0.4304396 0.16503806 0.18842702
0.51546514 -0.1283425 0.64701575 0.7801827 -0.061490044 -0.26652342 0.12123712 -3.0080853
-0.053789087 -0.47336903 0.34734136 0.30424806 0.121105775 0.42312098 0.75402254 -0.11550104
0.38172808 0.59493196 -1.0183308 -0.16413589 -1.9050626 -1.0006249 1.0135624 0.15077244
-0.35014775 -0.100543045 0.22474945 -0.29877436 -0.6646638 0.70312023 0.6707833 -0.39460683
-0.24679281 -0.4647891 0.54146135 -0.7334269 2.4497955 -0.1319537 0.79797685 1.171987
0.26014197 0.124838315 -0.36292043 -0.37787533 0.38148344 0.4424438 0.048041366 -1.193022
0.773781 -0.058506213 0.6049782 -0.5008532 -0.15854806 0.13423456 -0.06242159 -0.79473025
0.16965094 -0.23617335 -0.095903136 0.796747 -0.40834802 0.48259178 0.50724256 -0.9792852
-1.3132098 -0.45577624 -0.27764013 0.18781261 1.019428 -0.8702573 0.52966166 -0.72531253
-0.47036144 -0.16526797 0.47344792 0.4245332 0.17838159 0.33743396 -0.33752096 -0.54094654
0.6628445 0.82813174 -0.026890324 -0.08064487 -1.2265618 -3.1915946 -0.07045257 -0.16773334
-0.187933 0.07880935 -0.08925236 -0.07740833 0.94540113 -0.081238545 0.31528148 0.083482064
-0.49765733 -0.74839365 -0.30831242 -0.40260974 0.16781789 -0.3390957 0.81047374 0.013604625
0.27384695 -0.10349444 -0.9766977 -0.012003617 -0.29007915 -0.09741292 -0.049622577 0.52794945
0.2744417 -0.7813776 1.1275194 0.47902128 -0.35823378 0.34768683 -0.22905771 -1.416541
0.008235697 0.092062704 -1.4088812 0.16982423 0.91917914 -0.28304428 0.38402042 -0.05118277

layer.bias f4 [32]
00000000: 4474 403f f5a8 5ebc 975d adbe 6971 573d
00000010: a805 ed3e dcf4 86be d130 45bd ea5c 55be
00000020: 0f73 8cbe 5afb 14be 45e4 38bd db3b 3a3e
00000030: 4050 0e3f adae 6e3e 8900 1d3e 8d3b adbe
00000040: 63c8 62bc 07cc 933e 5f20 42be ec69 95be
00000050: f600 1c3e c696 94be 06b1 bc3c 1ae1 413c
00000060: bf69 723e 7487 443e 0df7 29bd 45e6 36bf
00000070: 9c2a bb3d 8b10 923d 8ed3 07bd 891d 853e
0.7517741 -0.013590087 -0.33860466 0.05259839 0.46293378 -0.26358688 -0.048142258 -0.20836225
-0.27431533 -0.14549008 -0.04513957 0.18186896 0.555912 0.23308821 0.15332235 -0.33834496
-0.013841721 0.28866598 -0.18957661 -0.29182374 0.15234742 -0.2902128 0.02303363 0.011833454
0.23673151 0.19192296 -0.04149537 -0.71445113 0.091389865 0.071320616 -0.03316074 0.25999096

out_layer.weight f4 [3, 32]
00000000: c09f f53e acd7 513e 5a6c 053d e34e 97bd
00000010: 8a8d 16be fcc4 f63e 5d0f 243d 24f6 a83d
00000020: 4705 853f fea4 db3e 50f9 863c 199b 013f
00000030: c502 83bf 3538 b4bd 27d4 f5bd 4b68 583d
00000040: 45ff c4bc 2823 39bd 10af e43c 4128 3bbe
00000050: 743b 383f 39f5 9dbc 9e47 2abf 4eb6 04bd
00000060: c5ec 973b ed3c a4bd b933 a53c f5ca a7bd
00000070: 4863 d7bd ca99 28bd e25d 153d 5833 1a3d
00000080: 9862 42be ae45 eb3e 45ea a13d aa74 d7be
00000090: 1c9b cbbe 012e 293f c067 cf3e f3b4 d53e
000000a0: f73b d43e 9261 a23e 8ecd 9c3e 783f 86be
000000b0: 37dc a8be cd60 33be f854 1fbf 8d29 293e
000000c0: a13d 5dbe b438 0bbf 2d3c 813d eeda 533e
000000d0: 7189 f93e db55 673e 57f3 57be c0b1 1ebf
000000e0: e7c6 d6bd a1cb 373c ff27 0f3e 1767 1bbf
000000f0: a940 f2be 28b5 1bbf 8f0d 273e 3f5b c43e
00000100: b082 5ebd 67a6 283b 197c 30be b719 5bbf
00000110: 94f3 ab3d a1b9 533d 201a 073f cff2 1e3e
00000120: 7ac6 123e 0141 253e 1630 cb3e 5627 23be
00000130: 42e0 19be 4f66 933d 77a6 d03d e867 1a3e
00000140: 967b 8abe d4b9 e0be b0a4 813d 26ae d13d
00000150: b2f9 113d 0b66 e2be 87af a3bd 0347 57be
00000160: d900 9f3d f58b d13d cdeb 853d 3598 9e3d
00000170: b8a7 1b3d afa2 d0be 4959 02bc 6083 de3e
0.47973442 0.20492429 0.032574035 -0.07388093 -0.1470243 0.48197162 0.040053714 0.082500726
1.0392236 0.42899317 0.016476303 0.50627285 -1.023522 -0.08799783 -0.120033555 0.052833837
-0.024047503 -0.045199543 0.027915508 -0.18277074 0.7196572 -0.01928197 -0.6651553 -0.03240042
0.0046363794 -0.08019433 0.020166265 -0.08193008 -0.10516983 -0.04116229 0.036466487 0.03764662
-0.18982923 0.459516 0.079060115 -0.42081195 -0.39766777 0.6608582 0.40508842 0.41739616
0.41452 0.31715065 0.30625576 -0.26220298 -0.3298051 -0.17517395 -0.6223903 0.16519757
-0.21605541 -0.543834 0.06310306 0.20688984 0.48737672 0.22591345 -0.2108892 -0.61989975
-0.10487156 0.0112179825 0.13980101 -0.6070418 -0.47314957 -0.608233 0.16313766 0.38350865
-0.054323852 0.002573395 -0.1723484 -0.8558611 0.08396068 0.0516907 0.5277424 0.15522312
0.14333525 0.16138078 0.39685124 -0.15932974 -0.15026954 0.07197248 0.10188001 0.150787
-0.27047414 -0.43891776 0.0633024 0.10238294 0.03563852 -0.44218478 -0.079924636 -0.21023183
0.077638336 0.10231773 0.06539116 0.07743875 0.038001746 -0.40749118 -0.007955858 0.43459606

out_layer.bias f4 [3]
00000000: 338d e5bd b420 27be a1a2 13be
-0.11208572 -0.16321069 -0.14417507
